ckpt_save_dir/seq2seq_traj_7.pth (torch, 71330 bytes, 12 tensors)

encoder.token_embeddings.weight f4 [60, 16]
-1.2480996 -1.3055252 -0.24703385 -0.43755326 1.006646 0.7448461 -0.38112214 -2.2198308
0.37282947 -1.4716741 0.41006327 0.29778656 0.10681486 1.318747 1.193189 -0.24627201
-1.3526537 -1.6959312 0.5666506 0.79350835 0.59883946 -1.5550951 -0.3413604 1.8530061
0.7501895 -0.58549756 -0.17339675 0.18347794 1.3893661 1.5863342 0.94629836 -0.84367675
-0.62038696 0.03236496 -0.49908924 0.25045416 0.44368896 0.107787445 0.6340643 0.43718782
-0.10181974 0.7852224 -0.2991322 0.0404507 0.51450926 2.3168178 -1.4652314 -1.5878017
-0.67312425 0.8727923 1.0553526 0.1778229 -0.23030418 -0.3917306 0.5432826 -0.39521834
-0.4462034 0.7439774 1.5209967 3.4105074 -1.531185 -1.2340912 1.8197455 -0.55152696
-0.56931186 0.9199073 1.1108081 1.289845 -1.4781066 2.5672677 -0.4731303 0.33544505
-1.6292927 -0.5498183 -0.47980645 -0.49966773 -1.0669955 1.115018 -0.14063202 0.80575687
-0.093347356 0.6870338 -0.8383188 0.0009049862 0.84187764 -0.39999944 1.0394604 0.3581373
-0.24600191 2.3024843 -1.8817073 -0.049778104 -1.0450178 -0.9564954 0.03350224 0.71009856
1.6458962 -1.3601325 0.3445282 0.5198573 -2.6134176 -1.6964371 -0.22823673 0.2799058
0.24691956 0.07686938 0.33799997 0.45424843 0.45676655 -0.86535585 0.78121746 -0.92672503
-0.21811715 -2.4344034 -0.07318181 -0.033658408 0.9615993 0.34908697 -0.92149603 -0.055284955
-0.6231799 -0.46311036 1.9217095 -0.4036043 0.12351649 1.1643949 0.92277414 1.3873802
-0.883779 -0.41697046 -0.80683035 0.5669442 0.6102035 0.4654945 1.9491613 -1.0617632
-0.077194035 0.116713196 -0.59744245 -1.247693 -0.10455992 -1.0314947 -0.31216037 0.24635904
-0.2612977 0.12140493 0.24213423 1.1654197 0.28990024 0.3836095 -0.20472367 -0.115878776
0.19215716 -0.7725331 -1.9086828 0.121879056 -0.710467 0.3190403 0.15900353 0.38498086
0.9671438 -0.99108475 0.30160522 -0.10731809 0.99845845 -0.4987132 0.76111054 0.6182974
0.31404915 0.21333075 -0.120049246 0.36046085 -0.31403553 -1.0787063 0.24081188 -1.3962269
-0.06614405 -0.35835508 -1.5615617 -0.3546433 1.0810726 0.13147806 1.5735383 0.78142995
-1.078658 -0.72090983 1.4707927 0.275635 0.66678107 -0.99438965 -1.189364 -1.1959494
-0.55951846 0.533577 0.40690315 0.39463684 0.17140526 0.8759754 -0.28705513 1.0218391
-0.07442976 -1.0921111 0.3919608 0.59448737 0.66229445 -1.2064438 0.60735583 -0.5471692
1.1710889 0.09749614 0.96337456 0.8403232 -1.2536547 0.9868361 -0.49465504 -1.283043
0.95522183 1.2835777 -0.6658611 0.5651337 0.2877034 -0.033374783 -1.0618885 -0.11442617
-0.34290427 1.5719978 0.19129543 0.38038647 -0.1452665 0.637199 -0.2814511 -1.3290406
-0.14211869 -0.5336334 -0.52386725 0.86098045 -0.8870706 0.83838636 1.1525363 -1.7609941
-1.4784449 -1.7564043 0.07602308 -1.078641 1.441079 -0.11011724 0.57655805 -0.17072356
-0.06372994 1.0372639 0.907245 -0.47510865 -0.87099653 0.14592566 1.903601 0.39035666
00000000: bac1 9fbf 731b a7bf 71f6 7cbe fb06 e0be
00000010: c7d9 803f 3cae 3e3f 7122 c3be b511 0ec0
00000020: 81e3 be3e d15f bcbf d0f3 d13e 7b77 983e
00000030: c0c1 da3d b4cc a83f 6bba 983f bb2e 7cbe
00000040: c223 adbf 4614 d9bf 0410 113f 5d23 4b3f
00000050: 8b4d 193f 5b0d c7bf cac6 aebe 4e2f ed3f
00000060: 6b0c 403f 2be3 15bf eb8e 31be a4e1 3b3e
00000070: c0d6 b13f 000d cb3f 9c40 723f 33fb 57bf
00000080: aed1 1ebf 1f91 043d a088 ffbe 873b 803e
00000090: 332b e33e aabf dc3d 0a52 223f 15d7 df3e
000000a0: de86 d0bd 5604 493f db27 99be a2af 253d
000000b0: e1b6 033f be46 1440 b48c bbbf 163d cbbf
000000c0: df51 2cbf 516f 5f3f cb15 873f 3517 363e
000000d0: dcd4 6bbe ea90 c8be 9214 0b3f 0f5a cabe
000000e0: c674 e4be 4e75 3e3f 05b0 c23f c145 5a40
000000f0: dffd c3bf b3f6 9dbf 6ced e83f df30 0dbf
00000100: 6cbe 11bf 0b7f 6b3f f62e 8e3f a419 a53f
00000110: 9932 bdbf 1d4e 2440 223e f2be 74bf ab3e
00000120: aa8c d0bf e4c0 0cbf 31a9 f5be 73d4 ffbe
00000130: 4f93 88bf e9b8 8e3f d701 10be 1546 4e3f
00000140: e62c bfbd 72e1 2f3f 109c 56bf 993c 6d3a
00000150: 4b85 573f bacc ccbe 0a0d 853f c65d b73e
00000160: ede7 7bbe e75b 1340 c9db f0bf 20e4 4bbd
00000170: 25c3 85bf e2dc 74bf a539 093d 05c9 353f
00000180: baac d23f d218 aebf 0066 b03e 5e15 053f
00000190: 3c42 27c0 da24 d9bf e4b6 69be d04f 8f3e
000001a0: 7bd8 7c3e b26d 9d3d 550e ad3e 4093 e83e
000001b0: 4edd e93e f687 5dbf defd 473f da3d 6dbf
000001c0: 1a5a 5fbe 44cd 1bc0 58e0 95bd 66dd 09bd
000001d0: 5f2b 763f 87bb b23e 2ae7 6bbf 7a72 62bd
000001e0: b888 1fbf cd1c edbe 94fa f53f 39a5 cebe
000001f0: 37f6 fc3d e40a 953f ed3a 6c3f ad95 b13f
00000200: 573f 62bf 277d d5be 6f8c 4ebf 4123 113f
00000210: 4c36 1c3f 4c55 ee3e 1e7e f93f dbe7 87bf
00000220: e817 9ebd 5407 ef3d fdf1 18bf 67b4 9fbf
00000230: 8323 d6bd 0508 84bf 7cd3 9fbe 8b45 7c3e
00000240: d0c8 85be 26a3 f83d 09f2 773e 792c 953f
00000250: ce6d 943e 7768 c43e 15a3 51be da51 edbd
00000260: d9c4 443e bbc4 45bf b84f f4bf ba9b f93d
00000270: 2ae1 35bf 4059 a33e d2d1 223e 361c c53e
00000280: bc96 773f bbb7 7dbf 006c 9a3e 96c9 dbbd
00000290: f99a 7f3f 5657 ffbe 24d8 423f bd48 1e3f
000002a0: 0dcb a03e 6073 5a3e 61dc f5bd 538e b83e
000002b0: 44c9 a0be 0c13 8abf 6497 763e 90b7 b2bf
000002c0: 8876 87bd 517a b7be 41e1 c7bf ce93 b5be
000002d0: 9660 8a3f 2fa2 063e b469 c93f cb0b 483f
000002e0: 7711 8abf 8c8d 38bf ef42 bc3f 0820 8d3e
000002f0: 2ab2 2a3f 5290 7ebf 143d 98bf df14 99bf
00000300: 9a3c 0fbf 8198 083f 9c55 d03e d70d ca3e
00000310: dc84 2f3e ec3f 603f e4f8 92be a0cb 823f
00000320: a16e 98bd 4cca 8bbf 16af c83e 5330 183f
00000330: 218c 293f c06c 9abf ac7b 1b3f 4813 0cbf
00000340: 3ee6 953f 0eac c73d b79f 763f 6c1f 573f
00000350: c277 a0bf 4aa1 7c3f 6d43 fdbe c13a a4bf
00000360: 6b89 743f 464c a43f e075 2abf 9aac 103f
00000370: dc4d 933e ffb3 08bd f6eb 87bf 4558 eabd
00000380: 2691 afbe 3937 c93f f3e2 433e 04c2 c23e
00000390: bec0 14be 791f 233f 5c1a 90be 011e aabf
000003a0: 9087 11be 339c 08bf 2a1c 06bf 3769 5c3f
000003b0: 0f17 63bf 7da0 563f 4f86 933f 4168 e1bf
000003c0: af3d bdbf dbd1 e0bf fdb1 9b3d e910 8abf
000003d0: 4775 b83f 2685 e1bd 4f99 133f 28d2 2ebe
000003e0: d884 82bd 10c5 843f 3541 683f 7141 f3be
000003f0: a1f9 5ebf 896d 153e 33a9 f33f d4dc c73e

encoder.lstm.weight_ih_l0 f4 [128, 16]
-0.10890908 0.056456067 0.16465704 -0.16709669 -0.19048336 0.012038984 0.13829759 -0.075243294
0.033708807 0.14502893 0.04881859 0.03431747 0.17488663 0.09573067 -0.11755635 0.019268671
0.090405405 0.15583196 -0.17753695 0.0959458 -0.05384624 -0.17499615 0.040705305 -0.09233382
0.026224727 -0.11275795 -0.13105968 -0.014870904 -0.05952026 0.10147522 0.009983702 0.13827536
-0.06322403 -0.17321956 0.093544506 -0.032520127 0.10433176 0.009408039 -0.022722911 -0.2250089
0.01229175 -0.241518 0.030255359 -0.11417425 -0.037594266 0.23598419 -0.042220358 -0.15015417
-0.15780382 -0.152912 0.0061398493 -0.016139051 0.18023123 -0.06745783 -0.048511297 -0.09651423
0.19197528 -0.14035854 -0.06342846 0.076510616 0.11148731 -0.015217918 0.017638467 0.068433344
-0.039697245 -0.19311874 -0.107164435 0.061850227 -0.0385271 0.13638063 0.13140526 -0.021726564
-0.005639343 -0.08584958 0.00091289415 0.038097907 -0.13331626 -0.018254347 -0.12003499 0.10524621
-0.082997605 0.19248535 -0.038938582 -0.08997968 0.060935643 0.007907778 0.13094003 0.12837665
-0.17859538 0.14599665 -0.04279445 -0.085798964 0.10922074 0.09660359 -0.18463601 -0.010372321
0.16858676 0.0917839 0.15337652 -0.051651496 -0.11520394 0.13831453 0.08072462 0.21143106
-0.080627896 -0.08689317 -0.028155753 -0.17194055 0.06691088 0.105561286 0.019792287 -0.012357744
0.022999203 -0.17794189 0.16014275 -0.19936158 -0.11845335 -0.0033974785 0.1250801 -0.09901289
0.086592905 -0.20225208 0.08476263 -0.004296853 0.07650912 0.19288096 0.13884306 -0.02658128
-0.08899335 -0.18703136 -0.07915587 0.08765945 -0.010591158 0.15325019 -0.09379861 -0.17644992
0.02629764 -0.24873815 0.022638533 -0.00028910578 -0.009348419 0.042159926 0.21432598 0.11636374
-0.1542996 0.04674784 -0.14571904 -0.1636948 0.079965405 0.023018224 -0.09210887 -0.2317223
-0.058402725 0.020512747 -0.15138504 -0.16239457 0.025744323 -0.08983537 -0.12404294 -0.07543243
-0.0515798 -0.18343425 -0.12250371 0.002954531 -0.14901236 -0.011257294 -0.12082366 -0.16416205
0.075837225 -0.16139862 -0.12650089 0.10645229 0.0350878 0.1854495 -0.025112934 -0.09020903
-0.05936486 -0.043017 0.12481664 -0.19285627 0.02238731 0.104263216 -0.11002183 -0.16560592
0.098551564 -0.21839942 0.05641524 -0.1257305 0.09195273 -0.10612294 0.15044592 -0.175168
-0.13295549 0.017561987 0.14215763 -0.14630702 -0.091396734 0.1466465 -0.024620034 0.09920781
-0.17456463 -0.037915092 -0.09474558 0.1457264 0.07200592 -0.1445064 0.013725387 0.0006221553
-0.06428264 -0.092689805 -0.057008184 0.14212559 -0.13355915 -0.1304757 -0.052035328 0.017020268
0.04570792 0.0148842 -0.04518253 -0.10885387 -0.03246634 -0.07965323 0.13550156 -0.17034867
-0.15526812 -0.18882369 -0.039474253 0.12202281 0.18714482 -0.12577033 -0.021045994 0.022744827
0.08932958 0.097412504 0.00762784 -0.106258 0.1198636 -0.008439238 0.13133371 -0.05526269
0.04584708 0.12908585 0.15814258 -0.17187794 -0.09285734 -0.05406957 -0.12063749 0.11532377
-0.007282849 -0.14951096 -0.07141188 -0.08936656 0.07583703 -0.11825649 -0.13656524 -0.18234544
00000000: b90b dfbd 7a3e 673d db9b 283e 651b 2bbe
00000010: 120e 43be 293f 453c e29d 0d3e 2819 9abd
00000020: 3f12 0a3d 7782 143e 00f6 473d 7a90 0c3d
00000030: 7b15 333e 710e c43d 62c1 f0bd 55d9 9d3c
00000040: 7826 b93d 6a92 1f3e 3fcc 35be 3b7f c43d
00000050: e08d 5cbd 3132 33be 9bba 263d 8419 bdbd
00000060: 3dd5 d63c a4ed e6bd 8234 06be 18a5 73bc
00000070: 84cb 73bd 3dd2 cf3d ae92 233c 0e98 0d3e
00000080: 9a7b 81bd 7860 31be 4394 bf3d d333 05bd
00000090: e4ab d53d 2d24 1a3c 6625 babc bc68 66be
000000a0: 5663 493c 7f50 77be 16da f73c 30d4 e9bd
000000b0: 72fc 19bd d7a5 713e 41ef 2cbd 04c2 19be
000000c0: 5397 21be f794 1cbe ca30 c93b 0b36 84bc
000000d0: 898e 383e 5527 8abd c8b3 46bd 41a9 c5bd
000000e0: 2b95 443e 26ba 0fbe c8e6 81bd 99b1 9c3d
000000f0: 7553 e43d 9354 79bc 8c7e 903c c826 8c3d
00000100: 9499 22bd ebc0 45be 0779 dbbd aa56 7d3d
00000110: 98ce 1dbd 5da7 0b3e 1a8f 063e e8fb b1bc
00000120: 3dca b8bb e8d1 afbd 4a4f 6f3a 8d0c 1c3d
00000130: 0f84 08be 248a 95bc e8d4 f5bd 538b d73d
00000140: a6fa a9bd e11a 453e 107e 1fbd 4447 b8bd
00000150: a797 793d a08f 013c 2515 063e 2b75 033e
00000160: b5e1 36be 2580 153e 3c49 2fbd 5eb7 afbd
00000170: 20af df3d 1ad8 c53d 3911 3dbe abf0 29bc
00000180: 02a2 2c3e 33f9 bb3d bc0e 1d3e 8590 53bd
00000190: 0bf0 ebbd 53a2 0d3e f352 a53d 6281 583e
000001a0: 3d20 a5bd 0cf5 b1bd e5a6 e6bc 2f11 30be
000001b0: 9208 893d 8430 d83d 6f23 a23c 2378 4abc
000001c0: d368 bc3c 6636 36be 76fc 233e 7125 4cbe
000001d0: ac97 f2bd 3ba8 5ebb ff14 003e 45c7 cabd
000001e0: 9f57 b13d 2b1b 4fbe 0898 ad3d 9ecc 8cbb
000001f0: d0b0 9c3d 9682 453e e02c 0e3e fcc0 d9bc
00000200: 2542 b6bd 2685 3fbe 791c a2bd cc86 b33d
00000210: 8986 2dbc 9eed 1c3e 7c19 c0bd 4aaf 34be
00000220: 266e d73c 37b5 7ebe 7274 b93c 1f93 97b9
00000230: 1c2a 19bc e3af 2c3d 4578 5b3e 1d50 ee3d
00000240: b700 1ebe aa7a 3f3d 5f37 15be 9c9f 27be
00000250: e7c4 a33d b790 bc3c 93a3 bcbd 9c48 6dbe
00000260: b237 6fbd 590a a83c ae04 1bbe c34a 26be
00000270: c2e5 d23c 9bfb b7bd 3a0a febd 517c 9abd
00000280: 5745 53bd 30d6 3bbe 3ae3 fabd cea0 413b
00000290: b296 18be 8370 38bc 6572 f7bd 191a 28be
000002a0: 8c50 9b3d ae45 25be 7389 01be a903 da3d
000002b0: 3ab8 0f3d 79e6 3d3e a4b9 cdbc 83bf b8bd
000002c0: 9128 73bd 9832 30bd de9f ff3d 1d7c 45be
000002d0: 9865 b73c f487 d53d 2053 e1bd 9994 29be
000002e0: 67d5 c93d 19a4 5fbe ab13 673d 7fbf 00be
000002f0: b751 bc3d fc56 d9bd 7f0e 1a3e 3d5f 33be
00000300: 7c25 08be 28de 8f3c c591 113e 82d1 15be
00000310: 362e bbbd 802a 163e f4af c9bc 772d cb3d
00000320: 12c1 32be db4c 1bbd f809 c2bd 4d39 153e
00000330: d777 933d 7cf9 13be 72e0 603c 2318 233a
00000340: 9ea6 83bd 27d4 bdbd 6a81 69bd 5f89 113e
00000350: bbc3 08be 6c9b 05be ff22 55bd 176e 8b3c
00000360: 3a38 3b3d dcdc 733c 5111 39bd c7ee debd
00000370: 6dfb 04bd 3c21 a3bd ecc0 0a3e e26f 2ebe
00000380: 9bfe 1ebe ff5a 41be c1af 21bd 18e7 f93d
00000390: e4a2 3f3e f0c9 00be a668 acbc 5c53 ba3c
000003a0: 6df2 b63d 3580 c73d f6f2 f93b cb9d d9bd
000003b0: 0c7b f53d bb44 0abc 587c 063e 215b 62bd
000003c0: 26ca 3b3d 152f 043e 21f0 213e c500 30be
000003d0: fd2b bebd 0e78 5dbd ca10 f7bd de2e ec3d
000003e0: f7a4 eebb 6719 19be 6440 92bd d105 b7bd
000003f0: 7250 9b3d 7530 f2bd c2d7 0bbe c3b8 3abe

encoder.lstm.weight_hh_l0 f4 [128, 32]
0.16802832 -0.03748019 0.10234193 -0.019670086 -0.07533251 0.107602336 -0.15819374 0.15747407
0.18600413 -0.0441339 0.074045055 0.18258674 0.053051732 0.06608211 0.07558597 -0.08383445
0.037284847 -0.09409495 0.16113846 -0.08556433 0.030012313 -0.04623271 0.09542939 0.009729382
0.09541008 -0.043920983 -0.09616344 0.07506428 -0.10966826 -0.14880472 0.075546294 -0.09543252
-0.066462815 -0.04245374 0.012480364 -0.0626073 -0.06751898 -0.04116509 0.12284275 0.05402467
-0.08472806 -0.11996205 0.0050565125 0.056571744 -0.005845028 0.103421226 0.15073743 0.051643834
0.057561338 0.10216302 -0.059458 0.029544178 0.13955025 -0.084215574 0.014997387 -0.0690328
-0.13595708 0.094701484 0.14323676 -0.094859675 0.06546557 0.05413037 0.06893166 0.09946617
0.18114366 0.11203013 -0.112025306 -0.016264426 0.13527113 -0.10522636 0.02580414 -0.11281068
-0.0140873445 0.075761385 0.02283609 0.10381917 -0.005204597 0.11206612 0.010714094 -0.010945488
-0.09538716 0.15082403 -0.108248554 0.18297763 0.1493578 -0.031756483 -0.18280002 -0.015999367
-0.069797486 0.033292275 -0.09810727 0.093037345 -0.11749303 -0.03254784 -0.012275389 -0.030931624
0.15701666 -0.08217698 -0.1148134 0.16050826 0.08307945 0.118051484 -0.10939706 -0.15054506
-0.119977415 0.005103836 0.03938364 -0.12484054 -0.0065387613 -0.010697552 0.11918179 -0.008084866
0.20525716 -0.11601382 -0.10925563 -0.08749175 0.15517385 -0.14437777 0.049064837 -0.100236244
0.18458234 -0.0008311556 -0.19752277 -0.009549908 0.0656357 -0.1473281 -0.004331198 0.11010406
0.052549556 -0.011866489 -0.028442986 0.059996262 -0.06990649 0.17002001 0.14762159 0.070063725
-0.07927092 -0.1669163 -0.107563965 0.16511485 -0.15747747 -0.16221717 -0.026668228 0.07442387
-0.1683636 -0.16693348 -0.009118016 -0.0468979 0.13421191 0.045609042 -0.1606816 -0.1691698
0.12013347 -0.042202298 -0.09465701 0.04470551 -0.021764746 0.09106726 0.035960548 -0.09387649
-0.14637889 0.10080872 -0.11415178 -0.031869423 0.010505225 -0.096883595 0.09438816 -0.11387031
0.05577275 0.023982573 0.07416578 -0.1688571 0.0044219205 0.08294655 -0.101512074 0.034334794
-0.010121698 0.15161933 -0.024060428 -0.0113011105 -0.08454472 -0.035868853 0.061389264 -0.16359352
0.12965892 0.13046333 0.08113961 0.14299168 -0.06346616 0.034689788 0.019454233 -0.108137004
-0.0714025 -0.06106212 -0.05073844 -0.16653982 -0.13047066 -0.02111593 -0.026965357 -0.15222478
0.04997188 0.10184847 0.15228903 0.15456815 -0.12113033 -0.059136685 -0.07353879 0.018893003
0.04030865 0.040692776 0.114616364 0.0827945 -0.100043386 0.1278194 0.12857023 0.030306173
-0.15860671 -0.10422759 0.054730218 0.070156336 0.15575431 0.08273467 0.07516613 0.005257649
0.1278577 -0.07891963 0.09236022 -0.05408457 0.023493962 0.09900204 0.07889662 -0.059810653
-0.03072572 -0.09993907 0.06504422 0.10695966 0.07146829 -0.16030908 -0.1541331 0.14705579
-0.0057414086 0.103601664 0.102319464 -0.020268805 -0.086169116 -0.17694137 0.045791946 0.07152676
-0.024828417 -0.18192826 -0.13647948 -0.03329029 0.1069202 -0.048495978 -0.1376758 -0.15713362
00000000: 9e0f 2c3e d484 19bd a598 d13d 2923 a1bc
00000010: ee47 9abd 9d5e dc3d 8afd 21be e240 213e
00000020: de77 3e3e c0c5 34bd efa4 973d 05f8 3a3e
00000030: c64c 593d 0f56 873d d1cc 9a3d 65b1 abbd
00000040: ffb7 183d dab4 c0bd 7b01 253e 5a3c afbd
00000050: 62dc f53c 835e 3dbd 7c70 c33d fc67 1f3c
00000060: 5c66 c33d 7de6 33bd 56f1 c4bd 4dbb 993d
00000070: c199 e0bd 4460 18be 04b8 9a3d 2072 c3bd
00000080: a81d 88bd f9e3 2dbd 717a 4c3c 4238 80bd
00000090: 6447 8abd ba9c 28bd fb94 fb3d f948 5d3d
000000a0: e885 adbd aaae f5bd 1ab1 a53b c6b7 673d
000000b0: a687 bfbb 82ce d33d ea5a 1a3e 7c88 533d
000000c0: 70c5 6b3d d83a d13d 3b8a 73bd a206 f23c
000000d0: 43e6 0e3e 3779 acbd 9ab7 753c 1261 8dbd
000000e0: 5538 0bbe daf2 c13d a8ac 123e ca45 c2bd
000000f0: d012 863d cfb7 5d3d 0b2c 8d3d ebb4 cb3d
00000100: b97d 393e 0e70 e53d 866d e5bd f93c 85bc
00000110: 8484 0a3e eb80 d7bd 3463 d33c 4909 e7bd
00000120: 9bce 66bc c928 9b3d c012 bb3c 259f d43d
00000130: 538b aabb ec82 e53d 2b8a 2f3c b454 33bc
00000140: 585a c3bd 9d71 1a3e 6bb1 ddbd 7d5e 3b3e
00000150: 40f1 183e 1613 02bd ee2f 3bbe 1b11 83bc
00000160: fcf1 8ebd 7b5d 083d 77ec c8bd 5d8a be3d
00000170: 30a0 f0bd e250 05bd b71e 49bc 5164 fdbc
00000180: fac8 203e 684c a8bd 4a23 ebbd 475c 243e
00000190: 8f25 aa3d fac4 f13d 910b e0bd 7c28 1abe
000001a0: b8b6 f5bd 143e a73b bd50 213d 66ac ffbd
000001b0: 1b43 d6bb c944 2fbc 9515 f43d 6376 04bc
000001c0: ef2e 523e a798 edbd 6ac1 dfbd e02e b3bd
000001d0: e5e5 1e3e c4d7 13be 36f8 483d a948 cdbd
000001e0: 2703 3d3e e8e1 59ba 6943 4abe 3877 1cbc
000001f0: 036c 863d 2ddd 16be b9ec 8dbb 3d7e e13d
00000200: 343e 573d aa6b 42bc 4401 e9bc a4be 753d
00000210: 222b 8fbd ba19 2e3e 1d2a 173e 927d 8f3d
00000220: cb58 a2bd 1bec 2abe 7f4a dcbd de13 293e
00000230: c641 21be 421c 26be 5477 dabc 8b6b 983d
00000240: 8267 2cbe 9cf0 2abe bb63 15bc 0318 40bd
00000250: d96e 093e 8cd0 3a3d b889 24be d93a 2dbe
00000260: 8908 f63d 51dc 2cbd 89db c1bd 201d 373d
00000270: fb4b b2bc 7981 ba3d 5e4b 133d 5142 c0bd
00000280: 59e4 15be cd74 ce3d 69c8 e9bd 8389 02bd
00000290: 1b1e 2c3c e86a c6bd 944e c13d d634 e9bd
000002a0: f871 643d 1a77 c43c 3ae4 973d e0e8 2cbe
000002b0: c2e5 903b e1df a93d 90e5 cfbd a4a2 0c3d
000002c0: 7ad5 25bc 1942 1b3e 601a c5bc 4b28 39bc
000002d0: c825 adbd 38eb 12bd 4f73 7b3d 0f85 27be
000002e0: 4fc5 043e 2e98 053e 862c a63d 696c 123e
000002f0: 8cfa 81bd e116 0e3d 7c5e 9f3c ef76 ddbd
00000300: 793b 92bd 461c 7abd 1cd3 4fbd 6a89 2abe
00000310: 1a9a 05be 51fb acbc 74e6 dcbc d0e0 1bbe
00000320: 50af 4c3d ee95 d03d a8f1 1b3e 1d47 1e3e
00000330: 2e13 f8bd 4f39 72bd 819b 96bd 80c5 9a3c
00000340: af1a 253d 78ad 263d fcbb ea3d 2a90 a93d
00000350: 8ce3 ccbd 17e3 023e eaa7 033e a744 f83c
00000360: cc69 22be 4675 d5bd cb2c 603d 20ae 8f3d
00000370: 0f7e 1f3e cb70 a93d b3f0 993d 5b48 ac3b
00000380: 21ed 023e 9da0 a1bd 5b27 bd3d c887 5dbd
00000390: 6976 c03c 95c1 ca3d 8d94 a13d 04fc 74bd
000003a0: 81b4 fbbc dbac ccbd e735 853d ab0d db3d
000003b0: f85d 923d 1028 24be 11d5 1dbe cb95 163e
000003c0: 6d22 bcbb 1c2d d43d de8c d13d c40a a6bc
000003d0: 6f79 b0bd 1e30 35be 5690 3b3d 9f7c 923d
000003e0: f764 cbbc 674b 3abe 47c1 0bbe 665b 08bd
000003f0: faf8 da3d b8a3 46bd e3fa 0cbe a3e7 20be

encoder.lstm.bias_ih_l0 f4 [128]
-0.095729455 -0.09014424 0.107753284 -0.0026481075 -0.056851402 -0.0073382524 0.055710502 -0.030360281
0.15482965 0.080874115 0.15548262 0.052229557 0.13356142 -0.16552146 0.091384545 -0.12417876
0.084903136 -0.07765732 0.089617364 0.19065486 0.241344 -0.005128193 -0.033666123 0.101021565
-0.087189354 -0.088527165 -0.12704608 0.15673555 0.03812549 0.04632147 -0.08253823 0.11181133
-0.17431286 -0.056647796 0.12871192 0.26671216 -0.0027801692 0.009700277 0.113242105 0.01933867
0.12610438 -0.04661648 0.15675832 -0.057671547 -0.022248173 0.03373768 0.22424932 -0.0055526914
-0.0064883796 -0.076002516 0.10323349 0.17384131 0.00038207695 -0.06772521 0.067420244 0.024714243
-0.032598104 0.13694087 0.111825354 0.142704 -0.05439511 -0.06620013 0.16798879 0.09773309
-0.16582315 -0.040229358 0.18681844 0.060114447 0.18516698 0.01252284 0.060087264 0.02670966
-0.09823515 0.0075311093 -0.15841588 -0.11897526 -0.13175152 0.012058532 -0.22686736 0.17365083
-0.06789831 -0.061235603 -0.115654826 0.043996975 0.0074222693 0.10656248 0.006016907 -0.03416244
0.07319588 -0.07090172 -0.018200995 0.19446482 0.006737703 0.091864474 0.08905165 -0.09978711
0.13489825 -0.044524685 -0.0792981 0.036448285 -0.008120781 -0.04443565 -0.03478669 0.032530487
-0.075784266 -0.13975203 -0.14600688 0.20070978 -0.012073735 0.06266164 -0.11623563 -0.012010054
-0.13115819 -0.023567421 0.16619723 0.14370733 -0.05928455 -0.089825004 -0.12260184 -0.05911316
0.054435726 -0.10981588 0.12294839 -0.08405568 0.17786886 -0.03847922 -0.06876563 0.13476121
00000000: ce0d c4bd 8b9d b8bd c1ad dc3d df8b 2dbb
00000010: 04dd 68bd b975 f0bb b230 643d 20b6 f8bc
00000020: aa8b 1e3e 54a1 a53d d636 1f3e a9ee 553d
00000030: 53c4 083e 757e 29be d227 bb3d 6f51 febd
00000040: b2e1 ad3d cd0a 9fbd 4f89 b73d 073b 433e
00000050: e222 773e 670a a8bb 7de5 09bd 65e4 ce3d
00000060: 5590 b2bd bb4d b5bd 5e18 02be 497f 203e
00000070: 7929 1c3d 95bb 3d3d ce09 a9bd 57fd e43d
00000080: 127f 32be 8507 68bd 0fcd 033e 7f8e 883e
00000090: 8033 36bb e9ed 1e3c 7aeb e73d 216c 9e3c
000000a0: 8221 013e ecf0 3ebd 4185 203e 0039 6cbd
000000b0: cd41 b6bc 8630 0a3d 9da1 653e 5af3 b5bb
000000c0: 799c d4bb 35a7 9bbd 146c d33d 7503 323e
000000d0: 8051 c839 84b3 8abd a013 8a3d 8675 ca3c
000000e0: 9785 05bd 3a3a 0c3e b104 e53d ff20 123e
000000f0: 68cd 5ebd ef93 87bd 4105 2c3e 4928 c83d
00000100: 8bcd 29be 8ac7 24bd 554d 3f3e 913a 763d
00000110: 6a9c 3d3e 992c 4d3c 101e 763d 38ce da3c
00000120: 832f c9bd 86c7 f63b c637 22be 4da9 f3bd
00000130: dfe9 06be 2691 453c eb4f 68be 86d1 313e
00000140: 450e 8bbd 2fd2 7abd 70dc ecbd 2c36 343d
00000150: 8236 f33b 6e3d da3d 7929 c53b eaed 0bbd
00000160: b9e7 953d ec34 91bd 411a 95bc c921 473e
00000170: f3c7 dc3b 7123 bc3d b660 b63d 2f5d ccbd
00000180: c422 0a3e 845f 36bd 0b67 a2bd cc4a 153d
00000190: 060d 05bc 2802 36bd 7d7c 0ebd b03e 053d
000001a0: c834 9bbd 281b 0fbe d482 15be dd86 4d3e
000001b0: ead0 45bc bf54 803d f20c eebd d1c5 44bc
000001c0: 554e 06be 7710 c1bc 9b2f 2a3e 0428 133e
000001d0: 5bd4 72bd 2cf6 b7bd ac16 fbbd a420 72bd
000001e0: fff7 5e3d 26e7 e0bd 5ecc fb3d 6225 acbd
000001f0: 4123 363e 639c 1dbd ffd4 8cbd d8fe 093e

encoder.lstm.bias_hh_l0 f4 [128]
0.1094657 0.12648104 0.23329273 -0.09113384 0.1171447 -0.118426286 0.106831625 0.19129813
0.045850728 0.089377835 0.05640802 0.11279847 0.10707165 0.044940468 -0.019337984 0.034684446
0.030580489 -0.15590766 0.18396448 -0.07425551 0.1879563 0.19761574 0.092154525 0.15244016
-0.0050710435 0.105769046 0.09408419 -0.1662506 -0.114140846 -0.030683568 0.09061746 -0.0034908946
-0.042537577 0.101567246 0.3141391 0.23752327 0.06608674 0.074160546 0.0021311354 -0.20210923
-0.19288203 -0.15104121 -0.10797034 0.10361779 -0.02192731 -0.12657405 0.09232946 -0.0053399345
-0.093676485 -0.17596819 0.25581947 0.07500145 -0.025674485 -0.10674077 -0.01773095 0.14821316
-0.14538142 -0.080848075 -0.052589096 0.26166582 0.04012078 0.12754858 -0.0032711264 0.03358219
0.09512957 -0.08444868 0.25218034 0.16703446 0.107154556 0.11595785 -0.055605527 0.06480716
-0.17872114 0.050028514 0.029177835 -0.043619033 0.047373455 -0.17895976 0.0805573 0.027592644
0.16836727 0.06424713 -0.19835213 0.23795041 0.109887384 -0.13515106 -0.028651731 -0.23908582
-0.12289 -0.1554856 -0.027492432 -0.073436975 0.079355344 -0.11378642 -0.21189684 -0.095499635
0.010266759 0.1291223 -0.10444955 0.15955104 -0.10720059 0.06318367 -0.15935992 0.15596853
-0.04485945 0.093437254 0.0010491199 -0.044276305 -0.05895942 -0.08251287 0.16117723 0.14296807
0.17531358 -0.050346628 -0.04456858 -0.073323265 -0.007550289 0.048958857 0.0074938955 -0.08616374
0.00701754 -0.010391208 -0.11561941 -0.068638355 0.0068551837 -0.16740118 -0.0127216065 0.07908433
00000000: 8e2f e03d 3f84 013e 4ae4 6e3e 61a4 babd
00000010: 8fe9 ef3d 7b89 f2bd 8aca da3d a8e3 433e
00000020: f9cd 3b3d ba0b b73d 190c 673d e202 e73d
00000030: 6248 db3d 7f13 383d b16a 9ebc 4711 0e3d
00000040: ef83 fa3c 42a6 1fbe 2f61 3c3e 4613 98bd
00000050: 9e77 403e c85b 4a3e 83bb bc3d 4619 1c3e
00000060: ff2a a6bb 719d d83d 36af c03d 993d 2abe
00000070: adc2 e9bd 1b5c fbbc a695 b93d 7ec7 64bb
00000080: e23b 2ebd 7d02 d03d d7d6 a03e 4d39 733e
00000090: 7c58 873d 7ce1 973d 85aa 0b3b b9f5 4ebe
000000a0: de82 45be 8caa 1abe 8e1f ddbd 9035 d43d
000000b0: e7a0 b3bc a19c 01be 3a17 bd3d 9efa aebb
000000c0: 75d9 bfbd 0131 34be c5fa 823e 5c9a 993d
000000d0: 4c53 d2bc e89a dabd 7f40 91bc 31c5 173e
000000e0: dede 14be ad93 a5bd aa67 57bd 10f9 853e
000000f0: b055 243d 189c 023e 6560 56bb 7a8d 093d
00000100: 4bd3 c23d 6ef3 acbd c81d 813e 150b 2b3e
00000110: d973 db3d 4f7b ed3d 9fc2 63bd 9eb9 843d
00000120: ad02 37be b3ea 4c3d 5b06 ef3c dfa9 32bd
00000130: ab0a 423d 3a41 37be 3afb a43d f809 e23c
00000140: 7868 2c3e 0094 833d d21c 4bbe 46a9 733e
00000150: a30c e13d 0a65 0abe 09b7 eabc ead2 74be
00000160: c1ad fbbd 9e37 1fbe cf37 e1bc 2066 96bd
00000170: 0e85 a23d db08 e9bd 7cfb 58be 5095 c3bd
00000180: e935 283c a338 043e a5e9 d5bd 5961 233e
00000190: fc8b dbbd 7166 813d 3f2f 23be 37b6 1f3e
000001a0: 8bbe 37bd 085c bf3d 9f82 893a 125b 35bd
000001b0: 6f7f 71bd 82fc a8bd a50b 253e 3966 123e
000001c0: 6785 333e 4438 4ebd 8b8d 36bd 822a 96bd
000001d0: 6a68 f7bb 1589 483d 5a8f f53b 9d76 b0bd
000001e0: 64f3 e53b e33f 2abc dfc9 ecbd 4492 8cbd
000001f0: 73a1 e03b 376b 2bbe 496e 50bc f7f6 a13d

decoder.embedding.weight f4 [60, 16]
-1.0986668 1.0324132 0.8762374 -1.3415314 -0.3623492 1.095069 -1.3762957 0.8103837
0.004851374 0.24812159 0.81671244 0.4183722 0.6870929 -0.09558388 1.0953524 0.46399316
0.10575964 0.56680536 -1.9231607 1.3306503 0.9276772 0.16568977 2.4246693 1.2803628
2.4401658 0.5516989 -1.2410023 0.18099466 -1.3084966 -0.29860058 -0.847182 -0.32719427
0.16019984 -0.030134508 1.7322487 -1.1069808 -0.031041557 0.5976348 1.3025622 -0.95748115
-0.6589468 0.9518999 -0.5310607 1.4844846 -3.0155482 -0.58084244 0.005063584 -0.63462555
0.3218162 1.1369565 1.2305171 -0.8977969 -0.55388474 -0.7672538 2.3161697 0.2254104
0.5447977 -0.67494625 -1.946398 0.45620334 -0.114196904 -0.30721086 -0.15810548 -0.71780807
-1.1049888 1.1300366 1.3301234 0.5805292 -0.78568316 1.042352 1.4000382 1.0407517
0.7001602 0.22331713 0.7804063 -0.16949457 1.4256421 1.0927128 0.09007478 1.5113487
-1.0935531 1.2479061 1.0444602 1.7861828 -0.16966751 0.3441806 -0.14103648 0.18768395
-1.7424498 2.2229698 0.51659864 -0.0541332 2.0319996 -0.0012935537 -0.7249444 1.5569884
0.24802837 -0.99195886 -2.5008595 1.4072448 -3.0600162 -0.2873502 0.35505256 -0.39256543
-0.8990928 -0.16157956 -0.3735248 -0.69765174 -0.750458 0.8939228 2.07446 -0.07525505
-0.29420596 -1.920524 -0.08476238 -0.31498295 2.3878388 -0.80273736 0.16296817 -1.972066
0.573301 0.17229308 -0.124833286 -0.5474459 0.21331583 -0.58588815 -0.09606959 0.5751989
1.2871621 -1.7696348 -0.83980083 0.29718518 2.3642554 -1.7406603 -1.2912754 -1.0440651
1.7231469 -1.6717687 1.1885852 -0.21322753 -0.18629858 -1.5261631 0.28618377 0.22932108
0.2000824 -0.59997594 0.31469086 -0.19554569 0.57421106 1.3414792 0.40426865 -0.8116237
-1.1770934 1.4140239 0.123935714 1.467894 -0.28770185 0.8721838 -1.1107644 1.2756037
-1.4434826 -0.31621945 -0.34513107 -0.293514 0.6633635 -1.7636935 -0.639657 -0.7599526
-0.24966145 -1.743203 -0.8982915 0.85433775 -0.9686011 1.1253054 1.098771 0.9665406
-0.95288384 0.72287023 0.20681626 -0.47861272 -1.3485471 0.030027453 -0.7286478 0.5937191
-0.8736637 -0.17242037 0.49776107 1.6698713 -1.7186944 0.07216462 2.0081127 0.33056372
-1.0048958 -1.1022799 -1.2766699 -0.2802483 0.008232079 0.016647529 0.29239148 0.87147295
0.8554183 -1.5486932 -0.55489784 -1.1263742 2.7608137 2.1507852 0.6447242 1.5445257
-0.8178418 -0.97002286 0.016020881 -1.3421887 -1.9707547 1.731202 1.8201847 -1.400954
0.020149456 -0.99715775 1.4338831 -0.07074099 -0.47847426 1.1170046 -1.1675678 1.1710756
0.65737593 0.05993024 0.28960803 -0.6152896 0.3198715 0.71350867 0.49248976 1.3392657
2.228004 1.7689458 -0.516684 1.3520114 0.6609234 0.47658628 -1.6091894 -1.4820218
-1.0122738 -0.5718457 -1.458356 -1.3778125 1.2093031 0.51767343 -0.014509541 -0.15776162
3.4506743 -0.019571936 -0.204801 0.77104634 0.47780514 -1.1268667 -0.22607546 -0.041401364
00000000: 1da1 8cbf 1e26 843f 1851 603f 4db7 abbf
00000010: d685 b9be 392b 8c3f 752a b0bf 4e75 4f3f
00000020: 46f8 9e3b 9613 7e3e 1114 513f e234 d63e
00000030: 52e5 2f3f 7bc1 c3bd 8234 8c3f 8390 ed3e
00000040: 8398 d83d 281a 113f 212a f6bf c052 aa3f
00000050: 417c 6d3f 94aa 293e c82d 1b40 eee2 a33f
00000060: ad2b 1c40 243c 0d3f 2ad9 9ebf aa56 393e
00000070: d17c a7bf 2de2 98be ebe0 58bf 0286 a7be
00000080: 6d0b 243e a5dc f6bc 53ba dd3f 8cb1 8dbf
00000090: dd4a febc 98fe 183f 5cba a63f 7c1d 75bf
000000a0: bdb0 28bf b6af 733f 98f3 07bf 9703 be3f
000000b0: befe 40c0 17b2 14bf 6cec a53b d276 22bf
000000c0: 18c5 a43e ca87 913f 9681 9d3f 05d6 65bf
000000d0: 64cb 0dbf bf6a 44bf 203c 1440 fcd1 663e
000000e0: dd77 0b3f 47c9 2cbf 9223 f9bf 7c93 e93e
000000f0: 11e0 e9bd be4a 9dbe 67e6 21be 45c2 37bf
00000100: 4670 8dbf 0aa5 903f 7c41 aa3f 909d 143f
00000110: 8822 49bf ca6b 853f 7434 b33f 5a37 853f
00000120: b33d 333f 3fad 643e b5c8 473f fc8f 2dbe
00000130: 717b b63f 03de 8b3f 2079 b83d e073 c13f
00000140: 8cf9 8bbf 63bb 9f3f dfb0 853f a3a1 e43f
00000150: 52bd 2dbe 7138 b03e de6b 10be 3930 403e
00000160: 9808 dfbf 2345 0e40 cf3f 043f c6ba 5dbd
00000170: 480c 0240 768c a9ba f595 39bf 654b c73f
00000180: 26fb 7d3e 04f1 7dbf 150e 20c0 9920 b43f
00000190: 4ed7 43c0 911f 93be 73c9 b53e 56fe c8be
000001a0: f22a 66bf 1d75 25be a53e bfbe 4e99 32bf
000001b0: 041e 40bf 20d8 643f f4c3 0440 521f 9abd
000001c0: 2aa2 96be bbd3 f5bf e697 adbd 7245 a1be
000001d0: 5ad2 1840 3280 4dbf 21e1 263e a96c fcbf
000001e0: dbc3 123f 996d 303e 98a8 ffbd 6a25 0cbf
000001f0: 776f 5a3e c4fc 15bf 22c0 c4bd 3c40 133f
00000200: bac1 a43f 6583 e2bf 30fd 56bf a828 983e
00000210: f64f 1740 f5cd debf 8348 a5bf eda3 85bf
00000220: 1490 dc3f 84fc d5bf 8f23 983f 5158 5abe
00000230: 0ec5 3ebe 5059 c3bf ae86 923e 25d3 6a3e
00000240: 67e2 4c3e 0698 19bf 291f a13e 213d 48be
00000250: 7fff 123f 97b5 ab3f 4dfc ce3e 92c6 4fbf
00000260: ffaa 96bf bcfe b43f 02d2 fd3d f3e3 bb3f
00000270: a84d 93be 7047 5f3f 872d 8ebf fb46 a33f
00000280: 0ac4 b8bf 84e7 a1be 05b5 b0be 7847 96be
00000290: 31d2 293f b5c0 e1bf 90c0 23bf 418c 42bf
000002a0: 40a7 7fbe 4721 dfbf 6ff6 65bf e1b5 5a3f
000002b0: 3ef6 77bf 020a 903f 87a4 8c3f 346f 773f
000002c0: 32f0 73bf 060e 393f a4c7 533e ba0c f5be
000002d0: 319d acbf 22fc f53c aa88 3abf fafd 173f
000002e0: 6da8 5fbf f78e 30be 8ada fe3e 58be d53f
000002f0: 2efe dbbf 0bcb 933d eb84 0040 a63f a93e
00000300: 6da0 80bf 8217 8dbf eb69 a3bf b57c 8fbe
00000310: d8df 063c 6660 883c 56b4 953e da18 5f3f
00000320: b2fc 5a3f 943b c6bf c90d 0ebf 082d 90bf
00000330: 2cb1 3040 77a6 0940 a50c 253f 05b3 c53f
00000340: 155e 51bf 6b53 78bf 393e 833c d7cc abbf
00000350: b141 fcbf 0798 dd3f d0fb e83f 7652 b3bf
00000360: 7910 a53c bb45 7fbf 7b89 b73f a7e0 90bd
00000370: 94fa f4be 02fa 8e3f dd72 95bf cee5 953f
00000380: ca49 283f 6979 753d 8147 943e 9f83 1dbf
00000390: 32c6 a33e 81a8 363f 9e27 fc3e 0f6d ab3f
000003a0: 9e97 0e40 d16c e23f 6745 04bf b60e ad3f
000003b0: 4732 293f 1e03 f43e ebf9 cdbf e4b2 bdbf
000003c0: 3092 81bf 7b64 12bf 69ab babf 295c b0bf
000003d0: 72ca 9a3f 3f86 043f 6db9 6dbc 438c 21be
000003e0: d9d7 5c40 5355 a0bc 5ab7 51be 4b63 453f
000003f0: e0a2 f43e 2b3d 90bf 5380 67be 7a94 29bd

decoder.lstm.weight_ih_l0 f4 [128, 16]
-0.21120311 -0.45096162 0.47096017 -0.17579997 -0.027673084 0.028624732 -0.06380648 -0.55353004
0.039084826 -0.17495154 -0.57674444 0.23993525 0.6197806 0.1975231 -0.0245433 0.42915654
0.35286224 -0.11841347 -0.008063953 0.13220856 0.5464949 -0.05556365 -0.14299352 -0.1698863
-0.06519218 0.3058742 0.47218433 0.36382723 -0.1055838 -0.29999012 0.092722215 0.33836743
-0.3096795 0.1493662 0.37207454 0.20512624 0.42512363 -0.11830547 0.2338096 0.083154045
0.26292172 0.15602963 -0.54141885 0.2803954 -0.11648768 -0.105936386 -0.07413193 -0.10594897
-0.067386314 0.26407602 -0.013532384 -0.19052993 0.5996961 -0.2823597 0.01770821 0.027390348
0.19296198 -0.09972681 -0.39922234 -0.1893159 0.19914639 -0.058873396 0.06774927 -0.35521543
0.008692855 -0.23339738 0.14408797 -0.23244792 0.56661975 0.0668711 0.019711591 -0.17855552
0.10886636 0.23112774 0.25403085 0.076271646 0.3746496 -0.16902949 -0.053526286 0.078602344
-0.4450855 -0.32253855 -0.3258702 -0.058782194 -0.33554775 -0.21735515 0.007518117 -0.018111072
-0.019022929 -0.3839695 -0.44656494 -0.1044286 0.33978194 0.4683597 -0.030482048 -0.18390088
0.12841548 0.07280398 -0.30403206 -0.091049336 -0.04059636 -0.060425725 0.0070535913 -0.41056865
0.10499302 -0.078940965 -0.081299685 -0.13742298 -0.07710328 0.28277382 0.10610687 0.26919216
0.024392623 0.18556595 0.19035219 -0.3711275 0.44532323 0.26910064 0.34069207 -0.47548884
1.1697581 -0.4045289 0.04624497 -0.17200258 -0.50513065 0.5296513 -0.48506394 0.5308264
-0.025434455 -0.25854456 -0.24323246 -0.0789452 0.35975552 0.17139545 0.1292226 0.0054267687
0.06884351 0.5912379 0.0153973745 -0.08196595 0.3803306 -0.22286476 0.07959502 -0.15266106
-0.010996182 -0.22615114 0.024643827 -0.19173373 0.10094937 -0.027762111 -0.0139010865 -0.114964515
-0.15198159 -0.10582774 0.2546598 0.079982094 0.14669512 0.0008920283 0.21943066 -0.017920328
-0.12874399 -0.118521966 0.021263057 -0.009803633 0.23163302 0.113130756 -0.077410445 0.07048792
-0.09643816 -0.055041667 0.17668964 -0.11131654 -0.024231091 -0.18237269 0.10824926 0.10495257
0.1594259 -0.11231272 -0.20636848 -0.00035470756 0.047139592 -0.10645141 -0.10958887 -0.18903412
-0.15481965 -0.10786419 0.024915865 0.1559504 0.028734073 0.1634197 -0.058066674 0.08829083
-0.17783795 -0.23579592 0.14040224 0.12454371 0.40001312 0.007818061 0.1000975 -0.110778384
0.042159162 -0.06536052 0.21274938 0.17489475 0.16309945 -0.09708333 0.4057226 -0.1744661
0.08604046 -0.0017514039 -0.19947788 -0.012313333 0.005551968 -0.154761 0.23323834 0.063002266
0.23036465 0.08228728 0.03315256 0.011802684 0.0801437 -0.10221907 -0.24186812 0.32625052
0.13702995 -0.112546034 0.10300492 -0.04954061 0.20309715 -0.0076157604 0.18942115 -0.14727539
-0.096369244 0.07191573 -0.10455203 0.13581385 0.054912943 -0.119144194 0.18198204 0.12572424
-0.17277803 -0.105866365 -0.04585122 -0.16034631 0.057326518 -0.19059837 -0.0484472 -0.20732538
0.06948222 0.1359737 0.21759143 0.10915031 0.1033081 0.2529023 -0.02883427 0.21462949
00000000: a145 58be 71e4 e6be b121 f13e e804 34be
00000010: aab2 e2bc 6a7e ea3c f9ac 82bd 25b4 0dbf
00000020: 6917 203d 7f26 33be 86a5 13bf 96b1 753e
00000030: f1a9 1e3f 7f43 4a3e 080f c9bc 68ba db3e
00000040: 5caa b43e c382 f2bd ac1e 04bc ae61 073e
00000050: 17e7 0b3f b696 63bd e56c 12be adf6 2dbe
00000060: 7a83 85bd 8b9b 9c3e 25c2 f13e 9047 ba3e
00000070: 523c d8bd 4e98 99be 25e5 bd3d 7f3e ad3e
00000080: 508e 9ebe 74f3 183e 8e80 be3e 9d0c 523e
00000090: cea9 d93e 234a f2bd c96b 6f3e ab4c aa3d
000000a0: ad9d 863e 3bc6 1f3e 6d9a 0abf fc8f 8f3e
000000b0: 1891 eebd 2df5 d8bd 7bd2 97bd c6fb d8bd
000000c0: d601 8abd f934 873e efb6 5dbc 471a 43be
000000d0: af85 193f 7391 90be cf10 913c b961 e03c
000000e0: d397 453e 923d ccbd df66 ccbe 07dc 41be
000000f0: 08ed 4b3e 3b25 71bd 21c0 8a3d ccde b5be
00000100: 7a6c 0e3c b9ff 6ebe cc8b 133e d406 6ebe
00000110: fe0d 113f b7f3 883d 347a a13c 42d7 36be
00000120: 53f5 de3d c0ac 6c3e 5510 823e 4f34 9c3d
00000130: 13d2 bf3e 1116 2dbe 613e 5bbd 44fa a03d
00000140: 3fe2 e3be c623 a5be 75d8 a6be 99c5 70bd
00000150: eacc abbe 5992 5ebe 895a f63b ac5d 94bc
00000160: f9d5 9bbc a697 c4be 29a4 e4be a9de d5bd
00000170: e6f7 ad3e d8cc ef3e 7db5 f9bc 8350 3cbe
00000180: 597f 033e 411a 953d 17aa 9bbe 1378 babd
00000190: 5e48 26bd f780 77bd d021 e73b 0e36 d2be
000001a0: 9506 d73d cdab a1bd 7380 a6bd 9cb8 0cbe
000001b0: 53e8 9dbd bbc7 903e 8f4e d93d 8ed3 893e
000001c0: 0ad3 c73c 0005 3e3e afeb 423e 6c04 bebe
000001d0: 6801 e43e 8fc7 893e 316f ae3e 4673 f3be
000001e0: a2ba 953f 691e cfbe 5e6b 3d3d 7221 30be
000001f0: 3e50 01bf 3a97 073f 4d5a f8be 3de4 073f
00000200: eb5b d0bc f45f 84be ee11 79be 05ae a1bd
00000210: e031 b83e 4a82 2f3e ee52 043e 09d3 b13b
00000220: d3fd 8c3d 5e5b 173f 4545 7c3c c4dd a7bd
00000230: b1ba c23e a936 64be b702 a33d 2e53 1cbe
00000240: 5529 34bc 2a94 67be dae1 c93c d955 44be
00000250: 8bbe ce3d 5e6d e3bc 62c1 63bc 8472 ebbd
00000260: 10a1 1bbe 37bc d8bd c562 823e a7cd a33d
00000270: 3f37 163e 02d7 693a 6eb2 603e a7cd 92bc
00000280: 77d5 03be a5bb f2bd dd2f ae3c 6b9f 20bc
00000290: 3531 6d3e 19b1 e73d 5e89 9ebd f85b 903d
000002a0: 5f81 c5bd 5f73 61bd 21ee 343e edf9 e3bd
000002b0: 4880 c6bc e8bf 3abe cab1 dd3d 5ff1 d63d
000002c0: 8b40 233e 3604 e6bd 4252 53be 0bf8 b9b9
000002d0: 7215 413d 3203 dabd 2170 e0bd 2992 41be
000002e0: 0b89 1ebe e7e7 dcbd 5b1c cc3c 76b1 1f3e
000002f0: b863 eb3c 7e57 273e 52d7 6dbd d3d1 b43d
00000300: 271b 36be 7c74 71be 9bc5 0f3e c610 ff3d
00000310: 85ce cc3e 5317 003c ebff cc3d c7df e2bd
00000320: 16af 2c3d bcdb 85bd f9da 593e 9c17 333e
00000330: 8b03 273e a0d3 c6bd dfba cf3e 3ea7 32be
00000340: fb35 b03d 5d8f e5ba ee43 4cbe ddbd 49bc
00000350: 48ed b53b ab79 1ebe 08d6 6e3e 5507 813d
00000360: b6e4 6b3e 3c86 a83d fbca 073d 0b60 413c
00000370: 6122 a43d 3b58 d1bd 47ac 77be 4f0a a73e
00000380: 9451 0c3e 897e e6bd 3ef4 d23d 18eb 4abd
00000390: b3f8 4f3e a18d f9bb 9ef7 413e 5ccf 16be
000003a0: 3d5d c5bd 8e48 933d 601f d6bd c912 0b3e
000003b0: 65ec 603d df01 f4bd 8059 3a3e dbbd 003e
000003c0: b9ec 30be 77d0 d8bd 7dce 3bbd d331 24be
000003d0: 36cf 6a3d 382c 43be 9270 46bd 1b4d 54be
000003e0: b24c 8e3d b13c 0b3e 4ad0 5e3e 338a df3d
000003f0: 3293 d33d 697c 813e d935 ecbc d5c7 5b3e

decoder.lstm.weight_hh_l0 f4 [128, 32]
0.30609104 -0.2112044 0.15757684 -0.05242988 -0.044182803 -0.17423029 -0.18852024 -0.025848266
-0.04580289 0.08472381 -0.15331484 0.3712763 0.1615218 0.054916088 -0.22248974 0.09159246
0.2070709 -0.07895242 -0.112595834 0.025072185 -0.23585723 -0.054318424 0.2104579 0.16224873
0.016715288 -0.20743841 0.06365237 -0.23457342 0.17999162 0.006038163 -0.27868477 -0.080938034
-0.0683881 -0.09062237 -0.10706384 0.24599579 -0.108971655 -0.04669384 -0.13936403 -0.2571239
0.18773434 0.05409995 -0.17571099 0.06492946 0.026582524 0.062382787 0.10581438 -0.08839655
-0.3428821 0.04996243 -0.01755369 0.12934777 -0.11713794 0.18674178 0.13751826 0.1483032
0.23837782 -0.08841988 -0.16801584 -0.051636048 -0.1325679 -0.08525908 -0.06731786 -0.21033587
0.078983255 0.113945976 -0.11805333 -0.063892804 0.100476325 -0.0654168 -0.26290274 -0.21456444
-0.1685301 0.21571329 0.11211862 0.036988858 0.17572877 0.16107878 0.018949544 -0.15372953
-0.02074851 0.06192998 0.35529318 0.17851181 0.09493032 0.19589277 0.1233178 -0.028516939
-0.07427967 0.092298575 0.11201168 0.07985763 -0.11039831 0.109388225 -0.22829346 -0.025229288
0.088993415 -0.2505475 -0.040619805 0.13330309 -0.2616095 -0.19791873 0.11871308 0.14308707
0.13704363 0.21756107 -0.144162 0.15807422 0.025568845 0.18823145 -0.27660486 0.16081634
0.0023943912 -0.2368956 0.13132533 0.3731104 -0.0019126367 0.5436652 0.05272764 -0.21865281
0.115379415 -0.14130607 0.052832294 -0.106180444 0.2343263 -0.25889042 0.065419056 -0.25598314
-0.047193363 0.14323957 0.05308853 0.002855415 0.1407257 -0.05973211 0.034188364 0.015115378
-0.0017435632 0.010881073 -0.33955786 0.21012391 0.14726022 0.24242088 -0.13817216 -0.035802074
-0.082290746 -0.32531738 -0.12433936 0.3311766 -0.042801116 -0.0968015 0.005013295 -0.13844058
0.11325465 -0.084199995 0.03117815 -0.36678585 0.07838311 -0.18304937 -0.104515724 -0.2967153
-0.14159045 -0.0145692965 0.5864355 0.19235231 0.037435193 0.07628767 -0.45592338 -0.077785105
-0.18494797 -0.10192471 -0.021072622 0.019083263 0.14463551 0.062749304 -0.17529422 -0.12041584
-0.5036708 -0.05899206 -0.25415644 -0.083745725 0.27386987 -0.37660214 -0.2833892 0.30221176
0.056080136 0.111474015 -0.040316258 -0.14441793 0.42338052 -0.05080753 -0.17432956 0.1263121
0.22047462 -0.44478086 0.23916082 -0.102485985 -0.28505996 0.14601265 -0.03523102 -0.122262836
0.25635678 0.11350437 -0.113475196 0.123789154 0.21772711 0.36127582 -0.035057124 -0.07923832
0.108840324 -0.013908524 -0.03175647 0.05416183 -0.024064746 0.0342538 0.038279567 -0.008525
0.33072004 -0.06886728 -0.34046003 0.091907755 0.1069287 -0.023472954 -0.43150434 -0.29656643
0.059937797 -0.302884 0.0074938163 0.10669025 -0.14408353 0.034275103 -0.1386164 0.36577076
0.40543038 -0.004705941 -0.114356704 -0.064334415 0.16451141 0.31777912 0.0074508293 0.058673117
0.31894314 0.13491349 0.008753987 0.15083684 0.09303149 -0.05399173 0.15256475 0.04699599
0.22172926 -0.046538886 -0.022637425 -0.15158303 0.057135385 -0.028620193 -0.17249072 0.0978768
00000000: f7b7 9c3e f745 58be d35b 213e b7c0 56bd
00000010: 07f9 34bd 6d69 32be 730b 41be bebf d3bc
00000020: d09b 3bbd ad83 ad3d 91fe 1cbe ed17 be3e
00000030: f965 253e b1ef 603d 5ad4 63be d494 bb3d
00000040: 650a 543e ceb1 a1bd a598 e6bd 2f64 cd3c
00000050: 8f84 71be ff7c 5ebd 4782 573e 8824 263e
00000060: 80ee 883c bc6a 54be 2c5c 823d 0434 70be
00000070: b94f 383e c8db c53b c5af 8ebe d7c2 a5bd
00000080: 0f0f 8cbd 3998 b9bd 4944 dbbd 52e6 7b3e
00000090: 882c dfbd 0a42 3fbd 72b5 0ebe bea5 83be
000000a0: 6e3d 403e e997 5d3d 95ed 33be bdf9 843d
000000b0: 98c3 d93c 1885 7f3d 36b5 d83d 4009 b5bd
000000c0: 3e8e afbe 68a5 4c3d c2cc 8fbc be73 043e
000000d0: 04e6 efbd 3d39 3f3e 96d1 0c3e cbdc 173e
000000e0: 5119 743e 7b15 b5bd 580c 2cbe 5280 53bd
000000f0: e1bf 07be 509c aebd f2dd 89bd 4962 57be
00000100: f9c1 a13d 825c e93d f2c5 f1bd 3bda 82bd
00000110: 88c6 cd3d 3ef9 85bd 309b 86be c8b6 5bbe
00000120: 2893 2cbe f2e3 5c3e 729e e53d a181 173d
00000130: 3ef2 333e d6f1 243e 133c 9b3c 466b 1dbe
00000140: c7f8 a9bc 4aaa 7d3d fde8 b53e cdcb 363e
00000150: d46a c23d 1d98 483e 0b8e fc3d 5b9c e9bc
00000160: f11f 98bd 0907 bd3d 6166 e53d 668c a33d
00000170: 8218 e2bd ef06 e03d c3c5 69be a7ad cebc
00000180: 2e42 b63d c347 80be f460 26bd 9b80 083e
00000190: aef1 85be 35ab 4abe d81f f33d 6b85 123e
000001a0: 2a55 0c3e 54c8 5e3e 349f 13be 35de 213e
000001b0: c175 d13c bfbf 403e 279f 8dbe 0aad 243e
000001c0: 38eb 1c3b c394 72be 267a 063e 5408 bf3e
000001d0: 70b1 faba a42d 0b3f f0f8 573d 86e6 5fbe
000001e0: 0b4c ec3d 8ab2 10be ad66 583d 2275 d9bd
000001f0: 3cf3 6f3e 498d 84be 6dfa 853d 3910 83be
00000200: d44d 41bd 65ad 123e 5c73 593d ea21 3b3b
00000210: 661a 103e a8a9 74bd 1909 0c3d 7ea6 773c
00000220: 4688 e4ba 8746 323c 87da adbe b92a 573e
00000230: 62cb 163e 2e3d 783e 017d 0dbe 32a5 12bd
00000240: 0d88 a8bd 0090 a6be a2a5 febd fb8f a93e
00000250: 3950 2fbd dd3f c6bd 9146 a43b 5ec3 0dbe
00000260: 0ef2 e73d 0c71 acbd 5269 ff3c 5bcb bbbe
00000270: 5387 a03d 4b71 3bbe 570c d6bd 11eb 97be
00000280: 16fd 10be 0fb4 6ebc a320 163f 01f8 443e
00000290: a555 193d b63c 9c3d ca6e e9be cc4d 9fbd
000002a0: 0063 3dbe e7bd d0bd 7ea0 acbc 8154 9c3c
000002b0: 551b 143e b582 803d 5480 33be 949c f6bd
000002c0: 92f0 00bf a9a1 71bd cb20 82be e182 abbd
000002d0: ac38 8c3e ffd1 c0be 6418 91be 80bb 9a3e
000002e0: 49b4 653d 7d4c e43d a922 25bd 4be2 13be
000002f0: 55c5 d83e 8e1b 50bd 7383 32be f657 013e
00000300: 19c4 613e 51ba e3be 93e6 743e 2ce4 d1bd
00000310: 61f3 91be 5784 153e 674e 10bd f064 fabd
00000320: 3241 833e fb74 e83d af65 e8bd 2b85 fd3d
00000330: dbf3 5e3e 25f9 b83e 0f98 0fbd b347 a2bd
00000340: ade7 de3d 94e0 63bc 1313 02bd ccd8 5d3d
00000350: 6e23 c5bc b64d 0c3d 09cb 1c3d 71ac 0bbc
00000360: 2354 a93e 4a0a 8dbd c750 aebe 223a bc3d
00000370: 6ffd da3d 5a4a c0bc 23ee dcbe 8ed7 97be
00000380: 5681 753d 9d13 9bbe b08e f53b 6b80 da3d
00000390: a28a 13be 0d64 0c3d 75f1 0dbe 4e46 bb3e
000003a0: 9294 cf3e 4b34 9abb d933 eabd c3c1 83bd
000003b0: ae75 283e f2b3 a23e 1626 f43b 3953 703d
000003c0: 844c a33e c326 0a3e e26c 0f3c f974 1a3e
000003d0: 4b87 be3d 6f26 5dbd ef39 1c3e de7e 403d
000003e0: ff0c 633e 8f9f 3ebd 1f72 b9bc 9538 1bbe
000003f0: cb06 6a3d e574 eabc 68a1 30be a273 c83d

decoder.lstm.bias_ih_l0 f4 [128]
0.25863698 0.26768935 0.20539807 0.32055214 0.30366752 0.16226578 0.5108811 0.4031408
0.54290456 0.32277283 -0.04365386 0.3321456 0.6111919 0.22768886 0.06566206 0.1621697
0.39830247 0.19412468 0.32533583 0.108016245 0.45605364 0.6158732 0.61337465 0.29517987
0.6620391 0.05762146 0.041247826 0.62165284 0.3586362 0.13915622 0.37846023 0.044789787
0.42310867 -0.0281955 0.35136095 0.06554327 -0.1930956 0.12985589 -0.13389586 0.42920104
0.24366987 0.34361473 0.23277874 0.02650023 -0.25538978 0.22968596 0.2838869 0.03426781
-0.17795388 0.15724695 0.49549222 0.3359711 0.1780803 -0.090811156 -0.025144057 -0.2507851
-0.52550846 0.019104846 0.1997752 -0.14693576 0.043833 0.053399675 -0.05918935 0.3720255
0.045669075 0.32214123 0.090545975 -0.029759116 -0.27162117 -0.051821504 0.10655487 -0.047508392
0.1509401 0.40616873 -0.21326718 0.32159734 -0.1408063 0.19290598 -0.4185259 0.30145225
-0.49699244 -0.258374 0.14462122 0.3266253 -0.010165696 0.025899317 -0.010373849 -0.40734333
-0.34936032 -0.28804517 -0.2355098 -0.22146535 0.303793 -0.12429466 -0.12457481 -0.27215117
0.29532942 0.1113555 -0.042840574 0.28726482 0.28315672 0.377542 0.43103674 0.123955406
0.44929358 0.40869555 -0.08680712 0.62870276 0.6448389 -0.116375856 0.08781621 0.26112682
0.14912559 0.42281827 0.53473294 0.1998535 0.44160315 0.3170334 0.26608703 0.6053582
0.46939915 -0.051880952 0.1310935 0.79270226 0.20040745 0.17079777 0.10811839 0.4935108
00000000: 116c 843e 940e 893e df53 523e 691f a43e
00000010: 4f7a 9b3e 0029 263e 1bc9 023f 7968 ce3e
00000020: cbfb 0a3f 7b42 a53e 64ce 32bd fd0e aa3e
00000030: 1377 1c3f 4527 693e d579 863d d00f 263e
00000040: 4dee cb3e 9fc8 463e 6b92 a63e 9f37 dd3d
00000050: dd7f e93e dea9 1d3f 1f06 1d3f d121 973e
00000060: 657b 293f 7b04 6c3d 7bf3 283d a424 1f3f
00000070: 2a9f b73e f87e 0e3e 8ac5 c13e 7f75 373d
00000080: b3a1 d83e 40fa e6bc 95e5 b33e 8d3b 863d
00000090: daba 45be f1f8 043e ff1b 09be 3dc0 db3e
000000a0: 9884 793e 45ee af3e 8d5d 6e3e 0317 d93c
000000b0: 73c2 82be cc32 6b3e a059 913e 675c 0c3d
000000c0: 8b39 36be 5805 213e 28b1 fd3e 6704 ac3e
000000d0: af5a 363e 33fb b9bd e9fa cdbc e866 80be
000000e0: b987 06bf c481 9c3c df91 4c3e 5476 16be
000000f0: 3b8a 333d 9eb9 5a3d 8870 72bd 207a be3e
00000100: 7f0f 3b3d b2ef a43e 2b70 b93d 64c9 f3bc
00000110: ee11 8bbe c942 54bd 7139 da3d 2998 42bd
00000120: 0b90 1a3e 59f5 cf3e b662 5abe 68a8 a43e
00000130: 872f 10be 2589 453e 0749 d6be f357 9a3e
00000140: cb75 febe 9949 84be 9617 143e 6e3b a73e
00000150: 058e 26bc ce2a d43c 14f7 29bc 4e8f d0be
00000160: 5bdf b2be a87a 93be 7b29 71be d0c7 62be
00000170: c28a 9b3e 338e febd 1421 ffbd 6657 8bbe
00000180: 6b35 973e 5a0e e43d 9979 2fbd 6014 933e
00000190: ebf9 903e 2f4d c13e d9b0 dc3e 55dc fd3d
000001a0: cf09 e63e 8b40 d13e eec7 b1bd aaf2 203f
000001b0: 2a14 253f 7756 eebd fcd8 b33d 6ab2 853e
000001c0: 61b4 183e a37b d83e 42e4 083f 65a6 4c3e
000001d0: cf19 e23e 3452 a23e 8f3c 883e c1f8 1a3f
000001e0: 1655 f03e 1f81 54bd 603d 063e 89ee 4a3f
000001f0: 9c37 4d3e 9ce5 2e3e 2d6d dd3d 73ad fc3e

decoder.lstm.bias_hh_l0 f4 [128]
0.4120819 0.3568856 0.26070505 0.2799205 0.37239173 0.19232982 0.4936031 0.3333666
0.46140468 0.34567443 0.18995564 0.30036238 0.35822195 0.32583413 0.17325456 0.11253633
0.3180053 0.17572097 0.27595928 0.074313074 0.46244207 0.5366071 0.38480467 0.58370507
0.53554887 0.048373614 -0.018008444 0.43151498 0.5877249 0.23712942 0.24719629 0.071704894
0.22154096 -0.2668096 0.63878584 -0.1241358 -0.042203646 0.051080782 -0.089102246 0.3766702
0.16997902 0.13245651 0.11071143 0.31780255 -0.13731411 0.17779297 0.17640568 -0.046839755
-0.18072067 0.17392144 0.3711335 0.19506654 0.40094113 -0.21077843 -0.019081356 -0.21487646
-0.40326068 0.11736885 0.16511597 -0.24305943 -0.16565529 0.02826444 -0.08870095 0.41445947
-0.054904185 0.1225127 -0.09338171 -0.043261003 -0.028544758 -0.05733056 0.09694006 -0.18699825
0.1250564 0.33523777 -0.1356102 0.15355855 0.19223888 0.34379268 -0.24376693 0.3855429
-0.22110097 -0.20144562 0.036037922 0.19940989 -0.19981068 -0.040447194 -0.2367476 -0.15463533
-0.53170556 -0.234303 -0.1307634 0.059301533 0.11148203 -0.19123901 0.08458478 -0.4401446
0.3051974 0.30644497 0.13838989 0.42362696 0.41100642 0.17005344 0.41083053 0.27217177
0.3786451 0.4685503 0.11555061 0.4785457 0.6078942 -0.021094745 0.110815406 -0.045028828
0.26033676 0.25583765 0.64757335 0.26547083 0.20436686 0.3236664 0.35873136 0.45505795
0.68040305 0.15226237 0.14137554 0.7684012 0.27885175 0.44843853 0.34582573 0.38949665
00000000: 66fc d23e b6b9 b63e 227b 853e bd51 8f3e
00000010: 21aa be3e 1cf2 443e 8cb9 fc3e 07af aa3e
00000020: 3c3d ec3e 3dfc b03e bb83 423e 19c9 993e
00000030: de68 b73e bbd3 a63e a569 313e 7379 e63d
00000040: 97d1 a23e 33f0 333e 894a 8d3e 7431 983d
00000050: 35c5 ec3e 155f 093f 1e05 c53e b26d 153f
00000060: bb19 093f 6923 463d 7286 93bc 88ef dc3e
00000070: 2475 163f 0ed2 723e 0621 7d3e 04da 923d
00000080: a2db 623e 459b 88be 7887 233f e93a febd
00000090: bbdd 2cbd 153a 513d 3d7b b6bd ebda c03e
000000a0: fb0e 2e3e aea2 073e adbc e23d 04b7 a23e
000000b0: 129c 0cbe 5c0f 363e b1a3 343e 0bdb 3fbd
000000c0: d70e 39be 7618 323e 3605 be3e 86bf 473e
000000d0: 2848 cd3e 4dd6 57be 8150 9cbc 9308 5cbe
000000e0: 2f78 cebe 145f f03d 2914 293e 92e4 78be
000000f0: 8aa1 29be d48a e73c d8a8 b5bd 0834 d43e
00000100: 36e3 60bd f0e7 fa3d e93e bfbd 7332 31bd
00000110: b2d6 e9bc 73d3 6abd 8388 c63d 787c 3fbe
00000120: c90e 003e 49a4 ab3e 66dd 0abe 743e 1d3e
00000130: 45da 443e 9805 b03e 0a9e 79be e165 c53e
00000140: 4b68 62be c347 4ebe 809c 133d 1b32 4c3e
00000150: 2c9b 4cbe f5ab 25bd f66d 72be b958 1ebe
00000160: db1d 08bf 20ed 6fbe d7e6 05be 2ae6 723d
00000170: b150 e43d 29d4 43be c93a ad3d a25a e1be
00000180: d542 9c3e 5be6 9c3e 14b6 0d3e a2e5 d83e
00000190: 6f6f d23e 7d22 2e3e 6158 d23e 195a 8b3e
000001a0: c5dd c13e d3e5 ef3e cca5 ec3d f103 f53e
000001b0: f49e 1b3f e3ce acbc 30f3 e23d 2670 38bd
000001c0: dc4a 853e 27fd 823e 5ec7 253f cbeb 873e
000001d0: 8c45 513e 9ab7 a53e a3ab b73e 5bfd e83e
000001e0: e52e 2e3f abea 1b3e c0c4 103e f1b5 443f
000001f0: a8c5 8e3e bc99 e53e 1210 b13e 1b6c c73e
